split_boundaries: [0, 2, 4, 6, 8, 10]
{'1': [4, 1], '2': [7, 5], '3': [3, 9], '4': [0, 8], '5': [6, 2]}
====================== Noise Type ==    seperate =======================
split_boundaries: [0, 2, 4, 6, 8, 10]
{'1': [4, 1], '2': [7, 5], '3': [3, 9], '4': [0, 8], '5': [6, 2]}
====================== Noise Type ==    seperate =======================
split_boundaries: [0, 2, 4, 6, 8, 10]
{'1': [4, 1], '2': [7, 5], '3': [3, 9], '4': [0, 8], '5': [6, 2]}
====================== Noise Type ==    seperate =======================
MLP_Inc_Tasks(
  (linear): Sequential(
    (0): Linear(in_features=1024, out_features=256, bias=True)
    (1): ReLU(inplace)
    (2): Linear(in_features=256, out_features=256, bias=True)
    (3): ReLU(inplace)
  )
  (last): ModuleDict(
    (1): Linear(in_features=256, out_features=2, bias=True)
    (2): Linear(in_features=256, out_features=2, bias=True)
    (3): Linear(in_features=256, out_features=2, bias=True)
    (4): Linear(in_features=256, out_features=2, bias=True)
    (5): Linear(in_features=256, out_features=2, bias=True)
  )
  (noise_list): ModuleDict(
    (1): Linear(in_features=1024, out_features=1024, bias=False)
    (2): Linear(in_features=1024, out_features=1024, bias=False)
    (3): Linear(in_features=1024, out_features=1024, bias=False)
    (4): Linear(in_features=1024, out_features=1024, bias=False)
    (5): Linear(in_features=1024, out_features=1024, bias=False)
  )
)
#parameter of model: 5573642
Task order: ['1', '2', '3', '4', '5']
====================== 1 =======================
tensor([ 0.0083, -0.0094, -0.0061, -0.0299, -0.0207, -0.0129,  0.0012,  0.0124,
         0.0188, -0.0212], device='cuda:0')
tensor([ 0.0249,  0.0136, -0.0473,  0.0102, -0.0166,  0.0442,  0.0496,  0.0005,
        -0.0393,  0.0564], device='cuda:0')
…
